app/recommender_api/models/ncf_model.ckpt (torch, 626931 bytes, 21 tensors)

user_embedding.weight f4 [1000, 16]
0	0x3d588de3	0.05286969
1	0xbfa00217	-1.2500638
2	0xbe6cba83	-0.23118024
3	0xbf36b762	-0.7137357
4	0x3e8f94a0	0.2804308
5	0xbe9982da	-0.29982644
6	0x3ebb6668	0.36601567
7	0x3d810ff6	0.063018724
8	0xbe60276a	-0.21890035
9	0xbe0dd0ba	-0.13849154
10	0x3d676331	0.05649108
11	0xbf4c6a7e	-0.79849994
12	0xbcd9ae86	-0.026572477
13	0xbf763e2f	-0.96188635
14	0xbdee22b7	-0.11627715
15	0xbfbfc694	-1.4982476
16	0xbf6a6d2c	-0.91572833
17	0x3e564586	0.20924959
18	0x3d37ca8c	0.044870898
19	0x3fe6e401	1.8038331
20	0xbfd8b103	-1.692902
21	0xbe810960	-0.25202465
22	0x3f9492b5	1.1607271
23	0xbf53e2af	-0.82767767
24	0xbf0bcc96	-0.5460905
25	0x3e4928e7	0.1964451
26	0x3fb57056	1.4174907
27	0x3f02b556	0.51057947
28	0xbeca015f	-0.3945417
29	0xbef57c97	-0.47946617
30	0x3f160886	0.58606756
31	0xbf23fc46	-0.64056814
32	0x3ec39b06	0.3820421
33	0xbe99718a	-0.29969436
34	0xbfa7626f	-1.3076915
35	0xbd755b5d	-0.059901584
36	0xbfdc65ac	-1.7218528
37	0x3ec2a86d	0.38019124
38	0xbea68231	-0.32521203
39	0xbeca791b	-0.3954552
40	0xbfe5f7b1	-1.7966214
41	0x3f3e2a51	0.7428332
42	0xbfeda9a0	-1.856739
43	0xbf4f1d4e	-0.8090409
44	0xbfb617b8	-1.4225988
45	0xbfad1759	-1.352275
46	0x3e9ce02c	0.3063978
47	0x3ff0db2b	1.8816885
48	0xbfa111cc	-1.2583556
49	0x3e1b6b1f	0.15177582
50	0xbee34c9d	-0.4439439
51	0x3eaae87d	0.333805
52	0x3f84b537	1.0367802
53	0x3f4c2cbd	0.79755765
54	0x3dc311b0	0.09524858
55	0x3fa28eb5	1.2699801
56	0xbc343b5f	-0.011000483
57	0xbec191ff	-0.378067
58	0x3fb51629	1.4147388
59	0x3ea8abfb	0.3294371
60	0xc02f3009	-2.7373068
61	0xbf8f285e	-1.1184194
62	0x3f8b24c5	1.0870596
63	0x40154254	2.3321733
64	0xbfe3daf1	-1.7801191
65	0xbefea491	-0.4973493
66	0x3f4f3b75	0.809501
67	0x3fcd28e1	1.60281
68	0xbf97d55a	-1.1861985
69	0xbfce8688	-1.6134806
70	0xbfa8d6e5	-1.3190581
71	0x3f6d65fc	0.9273374
72	0x3f58b047	0.8464398
73	0xbed270b0	-0.411016
74	0x3f95d63f	1.1706008
75	0xbd7ccb2c	-0.061717197
76	0x3e90043c	0.2812823
77	0x3f1e9750	0.61949635
78	0x3fe5bcc0	1.7948227
79	0xbede3e3f	-0.43406865
80	0x3e89d2c2	0.26918608
81	0xbf54c4a4	-0.8311255
82	0x3e85d136	0.26136178
83	0x3e0965ec	0.13417786
84	0xbe735eec	-0.23766679
85	0xbf5c6041	-0.8608437
86	0x3f87e413	1.0616478
87	0xbffed8fc	-1.9909968
88	0x3e8a604a	0.27026588
89	0x40154e61	2.3329089
90	0xbea79e92	-0.32738167
91	0x3f9b5d49	1.2137843
92	0x3f96c8ae	1.1779993
93	0x3e893f20	0.26805973
94	0x3ddcdf8b	0.10784825
95	0x3f2d0f7c	0.6760175
96	0x3c95743c	0.018243901
97	0xbf6da77e	-0.928337
98	0x3ebb813b	0.36622033
99	0xbc490f18	-0.012271665
100	0xbf4e9b5b	-0.80705804
101	0xbec4d1f1	-0.38441423
102	0xbf0f4168	-0.55959177
103	0xbf68f568	-0.9099946
104	0xbeab1ad1	-0.33418897
105	0x3fbacafa	1.4593194
106	0x3fc17c24	1.511601
107	0xbfbca524	-1.4737897
108	0xbe58663c	-0.2113275
109	0xbf3f021f	-0.7461261
110	0x3c467a2a	0.012114087
111	0x3ec8fa8f	0.3925366
112	0xbf18dbb4	-0.5971024
113	0x3f09f942	0.5389596
114	0x3ed89287	0.42299291
115	0x3ed296ae	0.41130584
116	0x3dee32d7	0.11630791
117	0x3ef08297	0.46974632
118	0xbf65d9d2	-0.8978549
119	0x4021994c	2.5249815
120	0xbf806990	-1.0032215
121	0x3ea03073	0.31286964
122	0x3f953c40	1.1659012
123	0xbffb92e9	-1.9654208
124	0x3ee56084	0.44800198
125	0x3fb8da5e	1.444164
126	0xbff21e98	-1.8915586
127	0xbcaaf75c	-0.020869903
128	0x3e55a010	0.2086184
129	0x3efabd34	0.48972476
130	0x3d907136	0.07052843
131	0x3ecc285e	0.39874548
132	0xbe1c48b0	-0.15262103
133	0xbe58a693	-0.21157293
134	0xbf02a31d	-0.5103014
135	0x3fec20dd	1.8447529
136	0xbdefdb3d	-0.11711738
137	0xbf992883	-1.1965488
138	0xbef6201d	-0.48071375
139	0xbf3e721d	-0.74392873
140	0xbeef6824	-0.4675914
141	0xbfc48497	-1.5352963
142	0xbeb0daa6	-0.34541816
143	0xbe480b71	-0.19535615
144	0xbf483d16	-0.7821821
145	0xbdfbb536	-0.122904226
146	0xbfbe80f6	-1.4883106
147	0xbedbd59b	-0.42936406
148	0xbf6e8ed0	-0.93186665
149	0xbfa067c6	-1.2531669
150	0xbe763c7b	-0.24046509
151	0xbe725326	-0.23664531
152	0x3fc57323	1.5425762
153	0xbf91d584	-1.1393285
154	0x3f11f538	0.570148
155	0x3ed05cc7	0.40695783
156	0x3f538da4	0.82638
157	0xbc9fd4a5	-0.019510577
158	0xbeaf5f74	-0.34252512
159	0x3e205e92	0.15661076
160	0x3fa9b6e3	1.3258938
161	0x3f9c9c03	1.2235111
162	0x3ef3b19f	0.47596452
163	0xbf869ac4	-1.0515981
164	0xbf6ae359	-0.91753155
165	0x3fb78300	1.4336853
166	0x3f0db692	0.55356705
167	0xbfb5586a	-1.4167607
168	0x3ea66f59	0.32506827
169	0xbf067527	-0.5252251
170	0xbf02c3f3	-0.51080245
171	0xbf6a378a	-0.91490996
172	0x3f0b4955	0.5440877
173	0xbfb83958	-1.43925
174	0xbed685ed	-0.41899052
175	0x3dc61163	0.09671285
176	0xbf21cb5c	-0.63200927
177	0xbf466b93	-0.77507895
178	0x3dd58b48	0.104269564
179	0xbf54dbd1	-0.83147913
180	0x3e8e2b8a	0.27767593
181	0xbe4313db	-0.19050543
182	0x3fa7a47a	1.3097069
183	0x3e06342c	0.1310584
184	0xbf8714b3	-1.0553192
185	0xbe288b61	-0.16459419
186	0x3e16aced	0.14714403
187	0x3b5711ef	0.0032817086
188	0xc005d7fd	-2.0913079
189	0x3f5c5e52	0.8608142
190	0xbf190a18	-0.59781027
191	0x3f2660b6	0.6499132
192	0x3cc007b7	0.023441179
193	0x3f51f6a6	0.8201698
194	0x3f64ba48	0.8934674
195	0x3e0ff07b	0.1405658
196	0x3ffb0749	1.9611598
197	0x3e0cc1f4	0.13745862
198	0x3f8e8bfd	1.1136471
199	0xbf6b0f54	-0.91820264
200	0xbfedecdb	-1.8587908
201	0x3d220830	0.03955859
202	0x3e1ae199	0.15125121
203	0xbec9fe60	-0.39451885
204	0xbfa2e704	-1.272675
205	0xbfb0b00c	-1.3803725
206	0x3eeb025c	0.45900238
207	0x3ed99b7e	0.42501444
208	0xbfb08ce1	-1.3792993
209	0x3f418174	0.75588155
210	0xbff6e83d	-1.9289623
211	0xbd939f8e	-0.07208167
212	0x3efd22da	0.49440652
213	0xbda0510a	-0.07827957
214	0xbfc4ecc6	-1.5384758
215	0xbe7a50da	-0.24444905
216	0xbf0aa915	-0.5416425
217	0xbf5fd3d0	-0.87432575
218	0x3ebf7559	0.37394217
219	0xc0043d5c	-2.066245
220	0x3f8fceda	1.1235001
221	0x3f2a58eb	0.6654193
222	0xbf2a97cc	-0.66637874
223	0xbf8e8fa8	-1.113759
224	0xbee318d2	-0.44354874
225	0x3d54db03	0.05196668
226	0xbf73d844	-0.9525187
227	0xbfdd1d15	-1.72745
228	0x3f2a9356	0.66631067
229	0xc013adbe	-2.3074794
230	0x3f3a1962	0.7269498
231	0xbf33d74a	-0.7025038
232	0xbe6bd00e	-0.23028585
233	0xba757524	-0.00093634636
234	0x3ffcb329	1.9742175
235	0xbf04fcb3	-0.5194809
236	0x3e65e207	0.22449504
237	0xbe8132dd	-0.25234118
238	0x3f17e1fe	0.5932921
239	0xbf924c52	-1.1429541
240	0xbf079d4f	-0.5297441
241	0x3eed4d5a	0.46348077
242	0xbfa441af	-1.2832545
243	0x3ee05aa7	0.43819162
244	0xbfb1466d	-1.3849617
245	0x3ea4847e	0.32132334
246	0x3e362235	0.17786486
247	0xbf63fed4	-0.8906071
248	0x3df379c9	0.11888463
249	0xbf7c0272	-0.9844123
250	0x3efaef49	0.49010685
251	0xbe06e16a	-0.13171926
252	0xbf296780	-0.66173553
253	0x3fa74f1e	1.307102
254	0x3f0c4e3c	0.54806876
255	0x3f9afbd3	1.2108101

item_embedding.weight f4 [1000, 16]
0	0xbe09a07c	-0.13440126
1	0xbfa77768	-1.3083315
2	0xbf8d5bf8	-1.1043692
3	0x3ea7381b	0.32659993
4	0xbf33a350	-0.7017107
5	0x3e7e063c	0.24807066
6	0x3f1277d3	0.5721409
7	0xbf769076	-0.9631418
8	0x3e21c3ee	0.15797397
9	0xbe905594	-0.2819029
10	0xbf833f07	-1.025361
11	0x3f7e1940	0.9925728
12	0xbf43afc0	-0.7644005
13	0x3f0d6b1f	0.5524158
14	0xbf9f39f3	-1.243956
15	0x3f34fca8	0.7069802
16	0xbe826b60	-0.25472546
17	0xbf9f0b69	-1.2425357
18	0x3dd9d2b6	0.10635893
19	0x3f9b9b9a	1.2156861
20	0xbe69dc8e	-0.22838041
21	0x3e8bb2c7	0.27284834
22	0x40181fe7	2.3769472
23	0x3f84a094	1.0361505
24	0xbf1b1251	-0.60574824
25	0x3dbc9f36	0.092100546
26	0xc015cffd	-2.3408196
27	0xbfd77541	-1.6832658
28	0x3f1b7e9f	0.60740083
29	0xbf732fc0	-0.94994736
30	0x3f812b8b	1.0091413
31	0x40286f01	2.6317751
32	0x3e9790fe	0.29602808
33	0xbf2e4d51	-0.68086725
34	0xbeec7510	-0.46183062
35	0x3f988007	1.1914071
36	0x3eb12035	0.34594885
37	0x3f985796	1.1901729
38	0x3f79bcde	0.97553813
39	0x3fb36ad0	1.4016972
40	0x3e9b5b21	0.30342963
41	0x3e943618	0.2894752
42	0x3fc42ce0	1.5326195
43	0x3f54ce92	0.831277
44	0xbfd0b177	-1.6304158
45	0xbe883aea	-0.26607448
46	0xbf9469d3	-1.1594795
47	0x3eb87b5c	0.36031616
48	0xbdc78a8a	-0.09743221
49	0x3f22c30a	0.63578856
50	0x3ec1c8b0	0.37848425
51	0x3ec37d15	0.38181368
52	0x3d0394a0	0.03212416
53	0x3ea4f828	0.32220578
54	0xbedf9247	-0.43666288
55	0xbf94b60b	-1.1618055
56	0x3f2d0ee8	0.6760087
57	0xbcff90e0	-0.031197011
58	0xbe6ce11c	-0.23132747
59	0xbebd8fc2	-0.3702374
60	0xbf9a3de8	-1.2050142
61	0xbf09adf9	-0.53781086
62	0xbfa0bc46	-1.2557456
63	0x3ff75a8e	1.932451
64	0x3f0457e9	0.5169664
65	0x3f325f93	0.69677085
66	0x3e8c60f8	0.2741773
67	0x40271201	2.6104739
68	0x3f14d697	0.5813994
69	0xbf291c18	-0.6605849
70	0xbe3356e7	-0.1751362
71	0xbe2a977a	-0.16659346
72	0x3fddb1f7	1.7319936
73	0xbf8835ac	-1.0641379
74	0xbf335192	-0.7004634
75	0x3feafa67	1.8357667
76	0x3c16302c	0.0091667585
77	0xbe0e9d53	-0.13927202
78	0x3ec25589	0.37955883
79	0x3ea1fc79	0.31637934
80	0xbf61669c	-0.88047194
81	0x3f4b0f08	0.7931981
82	0xbe1c024a	-0.15235248
83	0x3fa5d640	1.2956009
84	0xbfc4cf2d	-1.5375725
85	0xbf8896fb	-1.0671076
86	0xbf9c61b5	-1.2217318
87	0xbf4b609c	-0.7944429
88	0xbfa048a7	-1.2522172
89	0xbe11b0ec	-0.14227647
90	0xbf6f99de	-0.9359416
91	0x3eafc432	0.34329373
92	0x3e0e7a74	0.139139
93	0xc005e314	-2.0919847
94	0x3ec075ba	0.37589818
95	0xbf84ea7e	-1.0384061
96	0x3eb28f8a	0.34875137
97	0x3f9f7ebd	1.2460552
98	0x3e48fc22	0.19627431
99	0xbf211c02	-0.6293336
100	0x3facbb84	1.3494725
101	0x3f764e57	0.9621329
102	0xbfc9ecb9	-1.5775367
103	0x3fb77948	1.4333887
104	0x3f9325c7	1.1495904
105	0x3f93e894	1.1555352
106	0xbfcd9e4e	-1.6063936
107	0xbf8b5635	-1.0885683
108	0xbe972483	-0.29520044
109	0x3eed8c8e	0.46396297
110	0xbf5ee7be	-0.8707236
111	0x3edae6d9	0.42754248
112	0xbf3d482d	-0.73938257
113	0xbf1a4761	-0.60265166
114	0xbe79f646	-0.24410352
115	0xbe80594f	-0.25068137
116	0xbecd3f21	-0.40087226
117	0x3f50251f	0.8130664
118	0xbf870ac4	-1.055016
119	0x3ed20a81	0.4102364
120	0xbf4788a4	-0.7794287
121	0x3e8b6e7d	0.27232733
122	0xbf6b01f1	-0.9179984
123	0xbf2cf3a9	-0.67559296
124	0xc003bfd8	-2.0585842
125	0xc01d94ea	-2.462214
126	0xbf171cd4	-0.59028363
127	0xbdb0f6d2	-0.08640827
128	0xbf2f9d16	-0.6859907
129	0x3ddd7791	0.10813821
130	0x3fa81d83	1.3134006
131	0xbfc521d1	-1.5400945
132	0xbf7ed99f	-0.99550813
133	0xbe7a0065	-0.24414213
134	0xbf76362d	-0.96176416
135	0xbf050d0c	-0.5197303
136	0x3ee4ba98	0.4467361
137	0x3f4c6ce7	0.7985367
138	0xbfc87e09	-1.5663463
139	0xbf1dd4f0	-0.6165304
140	0xbfe69d1d	-1.8016697
141	0x3f38d83e	0.7220496
142	0xbfc84b18	-1.5647917
143	0x40019a9d	2.0250618
144	0xbf8b7425	-1.089482
145	0x3e6f0071	0.23340012
146	0x3fb79620	1.434269
147	0xc0303e45	-2.7538006
148	0xbbae951c	-0.005327834
149	0xbf5d8086	-0.86524236
150	0xbe658fc2	-0.2241812
151	0x3eda46b7	0.42632076
152	0xbfbf7705	-1.4958197
153	0xbe8f8d58	-0.28037524
154	0xbf7baabf	-0.9830741
155	0x3fc41640	1.531929
156	0x3e45a967	0.19302903
157	0xbfc6999d	-1.5515629
158	0x3f7cdbe8	0.9877305
159	0xbe457767	-0.1928383
160	0xbee9de7d	-0.45677558
161	0xbf6dd18b	-0.9289786
162	0xbf8b8c55	-1.0902201
163	0x3f354d05	0.7082065
164	0x3d686f53	0.056746792
165	0xbd97ea61	-0.07417751
166	0xbe7925b2	-0.24330786
167	0x3f821c84	1.0164952
168	0x3eb76a9d	0.35823527
169	0xbeb8d477	-0.36099598
170	0x3e0a3e05	0.13500221
171	0xbdbeab50	-0.09310019
172	0x3f3864d1	0.72028834
173	0xbf9c7724	-1.2223859
174	0x3e593c34	0.21214372
175	0x401f9bb8	2.4938793
176	0x3f2cc1cd	0.67483217
177	0xbf43543c	-0.76300406
178	0x3f01d95b	0.50722283
179	0xbedb5ad5	-0.42842737
180	0x3fc3f2ad	1.5308434
181	0xbf2b3670	-0.6687994
182	0xbe593ab5	-0.21213801
183	0xbfe3a74d	-1.7785431
184	0xbde09568	-0.10965997
185	0xbfb1dbc8	-1.3895197
186	0x3db6e1cf	0.08929788
187	0x3f19ba0c	0.6004951
188	0x3f7d5a9e	0.98966396
189	0x3e4eda51	0.20200469
190	0xbf19a616	-0.6001905
191	0xbea3a576	-0.31962174
192	0xbf3073df	-0.68926805
193	0xc003a9a3	-2.0572288
194	0x3c9260b1	0.017868372
195	0xbedc823f	-0.4306812
196	0x3f8b1c45	1.0868002
197	0xbe38d235	-0.18048938
198	0xbf255cb8	-0.645946
199	0x3e1a2788	0.15054142
200	0x3fb1894e	1.3870027
201	0x3f510441	0.81647116
202	0xbee6e6cf	-0.45097968
203	0x3e8ff04a	0.28113014
204	0x3f4cceb5	0.8000291
205	0xbf4bfcae	-0.79682434
206	0x3eb7da47	0.3590872
207	0xbfafff03	-1.3749698
208	0xbf1ba72a	-0.6080195
209	0x3eccb505	0.39981857
210	0xbc380080	-0.011230588
211	0x3c0f8388	0.008759387
212	0x3f5c0737	0.8594851
213	0xbdc60869	-0.09669573
214	0x3f343cb9	0.70405155
215	0xbfccacab	-1.5990194
216	0x3f8752e3	1.057217
217	0xbf816396	-1.0108516
218	0xbdb552d8	-0.08853692
219	0x3f61416a	0.8799044
220	0xbfb8ff09	-1.445283
221	0x3ff9f216	1.9527004
222	0xbf60c07f	-0.87793726
223	0x3f0556c3	0.5208551
224	0x3e5e1666	0.21688232
225	0xbe13e4b3	-0.1444271
226	0x3afab2fe	0.001912683
227	0xbf47adda	-0.7799965
228	0x3fc69702	1.5514834
229	0x3d8c77a9	0.06858761
230	0x3f3902b2	0.7226974
231	0xbea55ae0	-0.32295895
232	0x40071cf5	2.1111424
233	0xbe316049	-0.17321886
234	0xbf907a62	-1.1287348
235	0xbea73a7c	-0.32661808
236	0x3fc7d837	1.5612859
237	0xbff9a1c2	-1.950249
238	0x3fe8f26c	1.8198981
239	0xbfd04144	-1.6269917
240	0x3f4aa55c	0.7915857
241	0xbe175e99	-0.1478218
242	0xbe0cb54b	-0.13741033
243	0xbf347868	-0.70496225
244	0xbee881cb	-0.45411524
245	0xbea6268d	-0.32451287
246	0xbf0970ac	-0.5368755
247	0xbf1e415f	-0.618185
248	0xbda88755	-0.082289375
249	0xbf97d818	-1.1862822
250	0x3ecfea8a	0.40608627
251	0xbfbc70c3	-1.4721912
252	0xbd67681a	-0.056495763
253	0xbf1509f8	-0.58218336
254	0xbfadc4f9	-1.3575736
255	0x3e12e5bb	0.14345448

fc1.weight f4 [64, 70]
0	0x3d6b67a7	0.057471897
1	0x3c97c483	0.018526321
2	0xbe094f20	-0.1340909
3	0x3c280587	0.010255224
4	0x3e1e9382	0.15485957
5	0xbc95053f	-0.018190978
6	0x3c3c2a12	0.01148464
7	0x3dfe48a2	0.12416197
8	0x3cda2ee3	0.026633685
9	0xbd677124	-0.056504384
10	0xbccbf6be	-0.02489793
11	0x3c23e890	0.010004178
12	0xbd7d8f6b	-0.061904352
13	0xbda9492d	-0.0826591
14	0x3d225c27	0.039638665
15	0x3d102347	0.035189893
16	0xbd923e04	-0.07140735
17	0xbc8a3d17	-0.016874833
18	0x3c4c700d	0.012477887
19	0xbd216f43	-0.039412748
20	0xbd9449ad	-0.07240615
21	0x3d3d7128	0.046250492
22	0xbe0b9739	-0.13631906
23	0x3d84f664	0.06492308
24	0x3dfa1928	0.122118294
25	0x3b2e5ac2	0.002660439
26	0x3d57669d	0.052588094
27	0x3b4fc085	0.0031700444
28	0xbcc39a9a	-0.02387743
29	0xbde33c56	-0.110954925
30	0xbd6e11d1	-0.05812246
31	0xbced72d0	-0.02898541
32	0x3f1c3799	0.61022335
33	0x3f059937	0.5218691
34	0x3efbfee3	0.492179
35	0x3ea5da28	0.32393003
36	0xbd741382	-0.059588917
37	0x3d06c5ca	0.03290347
38	0x3cb71e26	0.022353243
39	0x3d9b686c	0.07588276
40	0x3dcf1326	0.10111074
41	0xbcb25a0c	-0.021771453
42	0xbdf5eb8b	-0.12007817
43	0xbd9dc6a9	-0.07703907
44	0xbd8c229f	-0.06842541
45	0xbce2e381	-0.027696373
46	0x3d854af5	0.065084375
47	0xbdf24363	-0.11829259
48	0x3d5195a1	0.051168088
49	0xbc4f5188	-0.012653716
50	0xbce95896	-0.028484624
51	0xbd547e06	-0.051877998
52	0x3a85fdb2	0.0010222702
53	0x3cc12ae2	0.023580018
54	0x3d8028e5	0.062578
55	0xbb85f80c	-0.0040884074
56	0xbe15abb1	-0.14616276
57	0x3d7ebf1e	0.062193982
58	0xbd69db00	-0.05709362
59	0xbcf8b253	-0.03035847
60	0xbe177b40	-0.1479311
61	0x3c58a1af	0.013222142
62	0x3dda26fd	0.10651968
63	0x3d350cc9	0.044201646
64	0x3db62fdd	0.08895848
65	0x3d806b28	0.062704384
66	0x3e069a63	0.13144831
67	0x3ba5c446	0.005058798
68	0x3c0fdd3b	0.008780773
69	0x3c1bfd97	0.00952091
70	0x3dab52d4	0.083654076
71	0xbd024978	-0.031808347
72	0xbdabff28	-0.083982766
73	0x3c850686	0.016238462
74	0x3e1319a0	0.14365244
75	0x3dbe3c53	0.0928885
76	0x3d9c6795	0.07636944
77	0xbd0b8310	-0.034060538
78	0x3daec5f7	0.085338525
79	0x3d3f3c29	0.046688233
80	0xbd8d9bb1	-0.069144614
81	0xbdd62776	-0.10456745
82	0x3d31ae86	0.04337933
83	0xbcbb3383	-0.022851711
84	0x3cecc773	0.028903699
85	0xbd2f9385	-0.042865295
86	0xbc25fbb0	-0.010130808
87	0x3cc02e00	0.023459435
88	0x3de03218	0.109470546
89	0xbcac9829	-0.02106865
90	0x3e1a5308	0.15070736
91	0xbb79ed7a	-0.0038135932
92	0xbc187161	-0.009304375
93	0xbd0d7795	-0.03453787
94	0xbdf6a634	-0.120434195
95	0xbe1330de	-0.1437411
96	0x3c45aa57	0.012064538
97	0x3dc538a9	0.09629948
98	0xbd8db8f7	-0.06920045
99	0x3d813d29	0.063104935
100	0x3dc8d76e	0.09806715
101	0xbd880d48	-0.06643158
102	0x3effba96	0.4994704
103	0x3f0cc14a	0.54982436
104	0x3e6eda77	0.23325525
105	0x3e800a56	0.25007886
106	0xbd83ec10	-0.0644151
107	0x3dee5447	0.116371684
108	0x3d776566	0.060399435
109	0x3d5d7bad	0.054073025
110	0x3d8549d4	0.06508222
111	0x3d10a270	0.035311162
112	0x3d292b9c	0.041301355
113	0xbda9c1f9	-0.082889505
114	0xbc71777a	-0.014737958
115	0xbd43ce7e	-0.04780435
116	0xbd1a958f	-0.037740286
117	0xbe0f9c20	-0.140244
118	0xbd303aca	-0.043024816
119	0x3cb0491a	0.021519233
120	0xbd8d8a88	-0.06911188
121	0xba94ca86	-0.0011351861
122	0x3d0c8c54	0.034313515
123	0xbcd37a16	-0.025815051
124	0x3db230c9	0.08700711
125	0xbd7019e0	-0.058618426
126	0xbdb7183c	-0.08940169
127	0xbd9fa76f	-0.07795607
128	0xbd3a1604	-0.045431152
129	0xbd73e460	-0.059543967
130	0xbe0c3718	-0.13692892
131	0x3d9801e0	0.07422233
132	0x3e04ef68	0.12981951
133	0xbdbb5090	-0.091462255
134	0x3c0e6c56	0.0086928215
135	0xbdae1e9f	-0.08501934
136	0xbcd66da1	-0.026175322
137	0x3c272b9a	0.0102032665
138	0xbd554882	-0.052071102
139	0x3dbb85e4	0.09156397
140	0xbd17c3b3	-0.037051868
141	0x3dd4f8cf	0.10399019
142	0xbd751812	-0.05983741
143	0x3da5b9f5	0.08092109
144	0x3ce5e8f5	0.028065184
145	0x3cef4f2e	0.02921256
146	0xbd1330c2	-0.03593517
147	0xbd694708	-0.056952506
148	0x3e243049	0.16034044
149	0xbd0f2008	-0.034942657
150	0xbc45e14a	-0.012077639
151	0xbd5edd29	-0.054410134
152	0xbc930d85	-0.017950783
153	0xbe29e13e	-0.1658983
154	0x3dbc554c	0.091959566
155	0x3dd125a7	0.1021226
156	0xbd689f57	-0.056792583
157	0xbdb056d1	-0.08610309
158	0x3d9d1310	0.076696515
159	0xbd346046	-0.044037126
160	0xbd040142	-0.032227762
161	0xbdcd29aa	-0.100177124
162	0xbc89f82f	-0.016841976
163	0xbd9e6464	-0.07733992
164	0x3d86c8cb	0.06581267
165	0xbde85d42	-0.113459125
166	0xbdded015	-0.10879532
167	0xbe257674	-0.16158468
168	0xbd643f94	-0.055724695
169	0xbadea8f4	-0.0016987608
170	0xbe4a77d9	-0.19772281
171	0x3df332d6	0.118749306
172	0x3f598ac3	0.8497736
173	0x3f717485	0.9431842
174	0x3f2a2e7c	0.6647718
175	0x3f3331a6	0.6999763
176	0x3aa84206	0.0012837059
177	0x3bd1e09b	0.006404949
178	0xbdd681fb	-0.104740106
179	0x3bf85194	0.0075780842
180	0xbdb0f996	-0.08641355
181	0xbcecf502	-0.028925423
182	0x3d155ebb	0.036467295
183	0xbe223e16	-0.15843996
184	0xbe0d212d	-0.13782187
185	0xbd3dd677	-0.046347108
186	0x3e08bc17	0.13353
187	0xbdb13160	-0.08651996
188	0xbe1fac95	-0.15593179
189	0xbdc4e1d1	-0.096133836
190	0x3d1a8276	0.037722073
191	0xbd341645	-0.04396655
192	0xbd7bf778	-0.0615153
193	0xbdbe741f	-0.09299492
194	0xbdcc6eb2	-0.09982051
195	0x3c46ae7a	0.012126559
196	0xbd372022	-0.04470838
197	0x3d68c129	0.056824837
198	0xbdbf8a0b	-0.093525015
199	0xbd34e215	-0.04416092
200	0xbe63d48f	-0.22249053
201	0xbce1212c	-0.027481638
202	0xbdddc6ad	-0.1082891
203	0x3d8f339a	0.06992264
204	0x3bf13ad6	0.00736175
205	0x3db13ba2	0.08653952
206	0x3e40cded	0.18828554
207	0x3d9c16cb	0.07621535
208	0x3dc49f12	0.09600653
209	0x3da5ccf0	0.08095729
210	0x3e157e1e	0.14598891
211	0x3c95b6d2	0.018275652
212	0xbdb66f58	-0.08907956
213	0x3dc3bc67	0.09557419
214	0x3e2f80c8	0.1713897
215	0xbc81740a	-0.015802402
216	0x3d4f1977	0.050561395
217	0x3ba72e3e	0.005101948
218	0xbbe714e1	-0.0070520495
219	0x3cb26828	0.021778181
220	0xbd845a02	-0.0646248
221	0x3d461f8b	0.048369925
222	0xbe1ed086	-0.15509233
223	0x3d5a18f6	0.05324646
224	0x3e44e998	0.19229734
225	0xbdb3297e	-0.087481484
226	0x3db9a4ad	0.090646125
227	0x3d273a97	0.04082736
228	0xbd8942a4	-0.06702164
229	0x3d795b6d	0.060878206
230	0x3dfcfaef	0.12352549
231	0xbd10aa26	-0.035318516
232	0xbdaad5a2	-0.083415285
233	0xbcd10050	-0.025512844
234	0xbd64f5ac	-0.055898353
235	0xbc029286	-0.007969504
236	0xbd82875f	-0.06373476
237	0xbd414e32	-0.047193713
238	0x3db4927b	0.088170014
239	0x3c8e62ad	0.017381037
240	0xbc917e0b	-0.017760297
241	0x3d709916	0.058739744
242	0x3f27d89b	0.6556489
243	0x3f0e26a6	0.5552772
244	0x3ee8a41b	0.45437703
245	0x3ea246ee	0.3169474
246	0xbc0162cd	-0.007897091
247	0x3cb6e429	0.022325592
248	0x3ccb7d7c	0.024840109
249	0x3d7d7840	0.061882257
250	0x3d12a317	0.035800066
251	0xbd424c5f	-0.047436114
252	0xbdaf0746	-0.08546309
253	0xbc61b6fc	-0.013776537
254	0xbda80144	-0.082033664
255	0xbe13b1cc	-0.14423293

fc1.bias f4 [64]
0	0x3d445b73	0.047938775
1	0xbddeeadc	-0.108846396
2	0xbd15c0aa	-0.036560692
3	0xbd7994cc	-0.06093292
4	0xbd8b8b4d	-0.06813679
5	0xbdfc18e6	-0.123094365
6	0xbc0f2e37	-0.008739046
7	0x3dd7e12d	0.10540996
8	0x3db913e0	0.09036994
9	0xbe114149	-0.1418506
10	0xbcf28aea	-0.029607255
11	0x3e1e67af	0.1546924
12	0xbdb8bbb4	-0.090201765
13	0xbd818b11	-0.06325353
14	0x3e037860	0.12838888
15	0x3c8e1c50	0.017347485
16	0x3e10936c	0.14118737
17	0x3cce9629	0.025218086
18	0x3d3028b3	0.043007564
19	0xba8e7cbf	-0.0010870917
20	0x3e5a8ef4	0.21343595
21	0x3e20870b	0.15676515
22	0xbd2822ea	-0.04104892
23	0x3c65f128	0.014034547
24	0x3d8b4829	0.06800873
25	0x3d45c22f	0.04828089
26	0x3dee92a4	0.11649063
27	0x3cd6423b	0.026154628
28	0xbdb59f59	-0.08868284
29	0xbd3d1bc2	-0.04616905
30	0xbd3f1c1e	-0.046657674
31	0x3bb0b238	0.005392339
32	0xbc50b355	-0.012738069
33	0xbc4b7ae5	-0.012419437
34	0x3c48afef	0.012248977
35	0xbdf9b3ce	-0.12192498
36	0xbe1b5c2c	-0.1517188
37	0xbda14e01	-0.07876206
38	0x3c634ed3	0.013873774
39	0x3d4c6f38	0.049910754
40	0xbd131166	-0.035905264
41	0xbdaed3e1	-0.085365064
42	0xbcd83e07	-0.026396764
43	0x3dc1faae	0.094716415
44	0x3e184f52	0.14874008
45	0xbd9257db	-0.07145663
46	0x3dd0f28b	0.102025114
47	0x3d6eed2c	0.058331653
48	0x3e113ae8	0.14182627
49	0x3e2cd596	0.16878352
50	0x3e24c736	0.16091618
51	0xbc2fd323	-0.010731491
52	0xbe1f3888	-0.15548909
53	0x3e36c966	0.17850265
54	0x3d568de4	0.05238141
55	0x3db01b1a	0.08598919
56	0xbcfb84f7	-0.030703051
57	0x3e4ac974	0.19803411
58	0xbb6b2f87	-0.0035886483
59	0x3d75c606	0.060003303
60	0x3e343bff	0.17601012
61	0xbdcd553b	-0.10026022
62	0x3e00dcce	0.1258423
63	0x3da42ef2	0.080167666

fc2.weight f4 [32, 64]
0	0x3c9fcb7a	0.019506205
1	0xbda6e783	-0.08149626
2	0x3cbb9789	0.022899406
3	0xbdd83630	-0.105572104
4	0x3d638c69	0.055553827
5	0xbd8d4fba	-0.06899972
6	0x3cd3e9b5	0.025868276
7	0x3e09c1f9	0.13452901
8	0xbcc1c316	-0.023652595
9	0xbd662798	-0.056190103
10	0xbc93a1e9	-0.01802154
11	0xbcdb7ae7	-0.026792003
12	0x3d2f1e01	0.042753223
13	0xbd31a887	-0.04337361
14	0xbd0634c8	-0.03276518
15	0xbd0a257b	-0.03372715
16	0xbdcb6d34	-0.09932938
17	0xbe21f8f1	-0.1581762
18	0x3e9093ff	0.28237912
19	0x3c666636	0.014062455
20	0x3e5f5e60	0.21813345
21	0x3e136e40	0.14397526
22	0x3d8ea23f	0.0696454
23	0x3c64e101	0.013969661
24	0x3dc84915	0.09779564
25	0xbda474b2	-0.0803007
26	0xbde28e01	-0.11062241
27	0x3defe76a	0.117140606
28	0xbdc25b29	-0.09490044
29	0x3c9735af	0.018458216
30	0xbd776919	-0.060402963
31	0x3df510cb	0.11966094
32	0xbcb6cc3f	-0.022314189
33	0xbca15e10	-0.019698173
34	0xbd52173e	-0.051291697
35	0xbdcbd677	-0.09953015
36	0x3d4ee333	0.050509643
37	0xbd4f63ba	-0.050632216
38	0xbd9d0897	-0.07667654
39	0x3e6d7ccb	0.23192136
40	0x3da54e6b	0.08071598
41	0xbdade1c2	-0.084903255
42	0x3da43157	0.08017223
43	0xbd4eb6ae	-0.050467186
44	0x3d0cb265	0.034349818
45	0x3d97ea83	0.074177764
46	0xbd884851	-0.06654418
47	0x3d467a8e	0.04845672
48	0xbd2eef5e	-0.042708747
49	0x3e8945b2	0.26810986
50	0x3da560fb	0.08075138
51	0x3d21595e	0.039391868
52	0x3d32f05e	0.043686263
53	0x3e49f67c	0.19722933
54	0x3e72a1fd	0.23694606
55	0xbd957ff0	-0.07299793
56	0x3e33eb67	0.17570268
57	0x3d7ba873	0.061439943
58	0xbce0b368	-0.027429298
59	0x3da6a367	0.08136635
60	0x3e1dc465	0.1540695
61	0x3d7aa223	0.061189782
62	0x3bbbdc8b	0.005733078
63	0x3dceda66	0.1010025
64	0xbd780375	-0.060550172
65	0x3db794f9	0.08963961
66	0xbd7d5b9f	-0.061854955
67	0x3bd3b0e4	0.006460296
68	0xbdc810b4	-0.09768811
69	0x3db1b4b8	0.086770475
70	0x39b574a2	0.00034609908
71	0xbcf0fa95	-0.029416362
72	0x3cc3272d	0.023822391
73	0xbd8c95b8	-0.06864494
74	0xbc09a1f9	-0.008400434
75	0xbda53ead	-0.08068595
76	0xbca59d79	-0.02021669
77	0xbdd0aac8	-0.10188824
78	0x3e0a78c4	0.13522631
79	0xbc72894a	-0.01480324
80	0xbdd420b4	-0.103578
81	0x3dafafc4	0.085784465
82	0x3da815b1	0.08207262
83	0xbd4648ef	-0.0484094
84	0x3e2a236a	0.16615072
85	0x3e1c8c35	0.1528786
86	0xbb001776	-0.0019545234
87	0xbdac261c	-0.08405706
88	0xbdd953e2	-0.106117025
89	0x3c69db47	0.014273471
90	0x3ce55e10	0.027998954
91	0x3dcf571d	0.101240374
92	0x3dadd9b8	0.08488792
93	0x3d2043b3	0.039127063
94	0xbda12199	-0.07867736
95	0xba3827ab	-0.0007024954
96	0x3db50c92	0.08840288
97	0x3d72072d	0.059088875
98	0x3e0bb7bf	0.13644312
99	0x3dda32fd	0.106542565
100	0x3ce93e00	0.028471947
101	0x3bece76b	0.0072297356
102	0x3d69acfe	0.057049744
103	0x3dfa58f2	0.12223996
104	0x3e0822a1	0.1329446
105	0x3d414be3	0.04719151
106	0xbd9ca9b1	-0.076495536
107	0xbda75364	-0.081702024
108	0x3db3c177	0.08777135
109	0x3d17daf8	0.03707406
110	0xbd1045e7	-0.035222914
111	0x3c99daa5	0.018781016
112	0xbd6f4e7e	-0.058424465
113	0x3e1dad1d	0.15398069
114	0x3de2021e	0.1103556
115	0xbd8e8b23	-0.06960132
116	0xbe10ebf4	-0.14152509
117	0x3db09249	0.08621652
118	0x3da07b60	0.07836032
119	0x3dbc736e	0.09201704
120	0xbd798608	-0.060918838
121	0xbcf6bd6c	-0.03011962
122	0xbc923dbe	-0.017851707
123	0xbdc45e28	-0.095882714
124	0x3d2bb993	0.041925024
125	0xbd87628f	-0.066105954
126	0x3dfabdf6	0.122432634
127	0xbb76470b	-0.0037578966
128	0xbd97f213	-0.07419219
129	0x3dcc4f21	0.0997603
130	0xbe17eeaf	-0.14837144
131	0xb9cf44d9	-0.00039533412
132	0x3d573423	0.052539956
133	0xbca87762	-0.020564739
134	0x3c1043d0	0.00880523
135	0xbbe341d9	-0.00693534
136	0x3cf30e2a	0.02966984
137	0x3d8de0dd	0.06927655
138	0x3de0f386	0.109839484
139	0x3d70e239	0.058809493
140	0x3d964702	0.073377624
141	0x3e1433b9	0.14472856
142	0xbd798dcf	-0.060926255
143	0x3d1251e8	0.035722643
144	0xbd84a929	-0.06477577
145	0x3cafbe62	0.021453086
146	0x3e352b14	0.17692214
147	0xbd8c5a76	-0.068531916
148	0x3d0be702	0.034155853
149	0x3cd90543	0.026491767
150	0xbc22b963	-0.009931895
151	0xbd9865f0	-0.07441318
152	0xbdf29088	-0.118439734
153	0xbd7779b5	-0.060418803
154	0x3da2ee57	0.07955616
155	0x3de28d07	0.11062055
156	0xbd4762d2	-0.048678227
157	0x3d836c97	0.06417196
158	0xbb99f457	-0.004698317
159	0x3d71c282	0.059023388
160	0x3d8fad55	0.07015482
161	0x3dce30b5	0.10067884
162	0xbd4f84cd	-0.050663758
163	0x3c885f1d	0.016646916
164	0x3db1e3c9	0.08686025
165	0x3c63298b	0.013864885
166	0x3db6b4b0	0.08921182
167	0x3c1aa25d	0.0094381245
168	0xbddae761	-0.10688663
169	0xbd3fe3b8	-0.04684803
170	0xbdebb341	-0.11508799
171	0x3dbbad64	0.09163931
172	0xbd85572f	-0.065107696
173	0x3e0bfc30	0.1367042
174	0xbdcb5973	-0.099291705
175	0x3d0ba8fe	0.03409671
176	0xbdfcaeda	-0.12338038
177	0x3e3d724a	0.18500629
178	0xbdd2bd05	-0.10289959
179	0x3df0a4ce	0.11750184
180	0xbc401455	-0.0117235975
181	0x3e52274e	0.20522806
182	0xbcbd40e8	-0.023102239
183	0x3cf9991a	0.030468512
184	0x3b76cfc6	0.0037660464
185	0xbd84283c	-0.064529866
186	0x3dd60810	0.104507565
187	0x3b803b84	0.003913345
188	0x3e0b3ba2	0.13596967
189	0xbab27a37	-0.0013616745
190	0xbccafef8	-0.024779782
191	0x3da495ec	0.08036408
192	0x3d1c81f4	0.03820987
193	0x3de63022	0.11239649
194	0xbe29f84e	-0.16598627
195	0x3d84b197	0.06479185
196	0x3c399d1d	0.011328963
197	0xbe007c2e	-0.12547371
198	0x3ce9b6ec	0.028529607
199	0xbd32fae2	-0.04369629
200	0x3d25a4f2	0.040440507
201	0x3db41611	0.08793271
202	0xbcdaeed0	-0.026725203
203	0x3d8f1f01	0.069883354
204	0x3d7da727	0.061926987
205	0xbdb86192	-0.09002985
206	0x3dabfd11	0.08397878
207	0xbe22cea3	-0.15899138
208	0x3c8b6b84	0.01701904
209	0x3e902af8	0.28157783
210	0x3e630f10	0.22173715
211	0xbda7f241	-0.08200503
212	0x3e6085d1	0.21926047
213	0x3d8bfdb7	0.06835502
214	0x3bc44820	0.0059900433
215	0xbdf80985	-0.12111191
216	0xbd9c1467	-0.07621079
217	0xbc70852d	-0.014680189
218	0xbbab4bbb	-0.0052275336
219	0x3d0ef7de	0.034904353
220	0x3d40d6c2	0.04707981
221	0xbdc187c4	-0.09449723
222	0x3dac7208	0.08420187
223	0xbdc00c9b	-0.09377404
224	0x3d37f194	0.04490812
225	0x3d8972db	0.0671136
226	0x3d03f0ea	0.032212175
227	0xbdd8c578	-0.10584539
228	0xbc90f327	-0.01769407
229	0xbcd99346	-0.026559483
230	0xbd79085d	-0.06079899
231	0xbde7292b	-0.11287149
232	0x3c8145ef	0.015780417
233	0xbb0afb76	-0.0021207011
234	0x3cf27b62	0.02959985
235	0x3d230da2	0.039807923
236	0x3d490de2	0.049085505
237	0x3d6b63a0	0.057468057
238	0xbc340e7f	-0.010989784
239	0x3bf37084	0.0074291844
240	0x3dee2042	0.116272464
241	0x3e20da5b	0.15708296
242	0xbd81732b	-0.06320795
243	0x3e0da5f9	0.13832845
244	0xbc8b72fd	-0.017022604
245	0x3e4da095	0.20080788
246	0x3c92f5c0	0.017939448
247	0x3de54b5a	0.11196013
248	0xbdae41cb	-0.08508643
249	0x3ca4ec24	0.020132132
250	0x3db0da69	0.086354084
251	0xbc1795ee	-0.009252055
252	0x3e238350	0.1596806
253	0x3d3a40b1	0.04547185
254	0x3dfd5a66	0.12370758
255	0xbda1d60b	-0.079021536

fc2.bias f4 [32]
0	0xbda30df3	-0.07961645
1	0x3e2cceb8	0.16875732
2	0x3da744fe	0.08167456
3	0x3d95a89f	0.073075525
4	0x3bddeb5e	0.0067724427
5	0xbb3dd880	-0.0028968155
6	0xbd2941b5	-0.04132243
7	0x3dfc2224	0.12311199
8	0x3e3aabd3	0.18229608
9	0x3e6ec2d7	0.23316513
10	0x3d184b41	0.037181143
11	0xbe3a4ed9	-0.1819414
12	0x3d8692a3	0.065709375
13	0x3dbd3653	0.09238877
14	0xbded8187	-0.11596971
15	0x3e1f9395	0.15583642
16	0xbb3f5970	-0.0029197596
17	0xbbecea96	-0.0072301133
18	0xbbbf452b	-0.005837103
19	0x3e146424	0.14491326
20	0x3e126ec1	0.14300062
21	0x3e1be5ac	0.15224332
22	0x3d471af6	0.048609696
23	0xbe0d34df	-0.137897
24	0xbdb73b16	-0.089468166
25	0xbd85fa53	-0.06541886
26	0x3b87f594	0.0041491482
27	0xbdd65d9b	-0.104670726
28	0xbd7fb967	-0.062432673
29	0xbdd60b4b	-0.10451373
30	0x3e0af3f6	0.13569626
31	0xbdf16658	-0.11787099

output.weight f4 [1, 32]
0	0xbe05703f	-0.130311
1	0xbe0cc9b2	-0.13748816
2	0xbd9bcbec	-0.076072544
3	0xbe236ec8	-0.15960228
4	0x3e1e55d4	0.15462428
5	0xbcb47412	-0.022028003
6	0xbdc1e37b	-0.094672166
7	0x3db61d09	0.08892257
8	0x3e5bd5dd	0.21468301
9	0x3eaab277	0.33339283
10	0xbd9412e5	-0.07230166
11	0x3d049033	0.03236408
12	0xbd05590e	-0.032555632
13	0xbf0bea65	-0.5465453
14	0xbb883b27	-0.004157442
15	0xbedd2409	-0.43191555
16	0xbe310793	-0.17288046
17	0xbdf4cce3	-0.119531415
18	0x3e0222e3	0.1270862
19	0xbd22d7f8	-0.039756745
20	0xbd35dbb4	-0.04439898
21	0xbe5d4400	-0.21607971
22	0x3da18ea3	0.07888534
23	0x3e147d78	0.14500988
24	0x3dbbb782	0.09165861
25	0x3c449e51	0.012000636
26	0x3d63c723	0.055609833
27	0x3d379f73	0.044829797
28	0xbc9e238b	-0.019304058
29	0xbe06f3dd	-0.13178964
30	0x3edf2477	0.43582508
31	0x3e14151a	0.14461175

exp_avg f4 [1000, 16]
0	0x363d03c6	2.816539e-06
1	0x367debc4	3.7837171e-06
2	0xb60ed3b8	-2.1282885e-06
3	0x36082dfd	2.0292348e-06
4	0x36814002	3.851951e-06
5	0xb587f373	-1.0129137e-06
6	0xb68c2905	-4.1771004e-06
7	0x35601eb8	8.3491204e-07
8	0x368bfc0a	4.171864e-06
9	0xb63de0c4	-2.8294025e-06
10	0xb5fc4c4c	-1.8797668e-06
11	0xb593f4bc	-1.102358e-06
12	0x34c0f3d4	3.5940195e-07
13	0xb60ac70d	-2.0679465e-06
14	0x365a156d	3.2497003e-06
15	0x331db2d1	3.6717044e-08
16	0x36c9c1f3	6.0128455e-06
17	0x370a9aef	8.261514e-06
18	0xb6bc7f40	-5.6176505e-06
19	0x36727fe2	3.6135248e-06
20	0x36f8b376	7.411868e-06
21	0xb612395d	-2.1789085e-06
22	0xb7115a9f	-8.663773e-06
23	0x366516f5	3.4137022e-06
24	0x370f87f5	8.555119e-06
25	0xb6b70fd6	-5.4556685e-06
26	0xb69dcc44	-4.7027443e-06
27	0xb60cc313	-2.0975174e-06
28	0xb3ef389b	-1.1139601e-07
29	0xb6a6e320	-4.9736263e-06
30	0x36fca73f	7.5296552e-06
31	0x362a6530	2.5390873e-06
32	0x360adee8	2.069335e-06
33	0x3629e183	2.5314228e-06
34	0xb5c25892	-1.4479904e-06
35	0x35bea2a2	1.4203436e-06
36	0x3617fc04	2.2647446e-06
37	0xb55f2034	-8.3120835e-07
38	0xb6474b4a	-2.9697135e-06
39	0x356ad2b5	8.747841e-07
40	0x363bb5e6	2.797105e-06
41	0xb626a96f	-2.483455e-06
42	0xb5a5e51d	-1.2360139e-06
43	0xb55aa7a8	-8.14553e-07
44	0x3507bb53	5.056401e-07
45	0xb5bcf940	-1.4079633e-06
46	0x360a49a3	2.0606465e-06
47	0x3467743b	2.1555836e-07
48	0xb6dc0432	-6.5569993e-06
49	0xb749d352	-1.2029735e-05
50	0x36bf26e6	5.696772e-06
51	0xb6c3f8dd	-5.8404244e-06
52	0xb72c39ae	-1.02654285e-05
53	0xb447a32c	-1.8592681e-07
54	0x3731bc6c	1.05938925e-05
55	0xb6ee897c	-7.108958e-06
56	0xb72febc9	-1.0485711e-05
57	0x36b5c196	5.4167567e-06
58	0x36d65b6b	6.3883394e-06
59	0x3603c91d	1.9637585e-06
60	0x36cee415	6.1658307e-06
61	0x36c77c43	5.945128e-06
62	0xb730e997	-1.0544804e-05
63	0xb6ed78d9	-7.077219e-06
64	0x35a992ce	1.2634207e-06
65	0x36106dfc	2.1521691e-06
66	0xb5a1e8ce	-1.206319e-06
67	0x358230fc	9.700011e-07
68	0x35dd9c0d	1.65112e-06
69	0x3481dd40	2.4189103e-07
70	0xb5f3910c	-1.8147125e-06
71	0x35a8c0a9	1.2573047e-06
72	0x35f282b0	1.806844e-06
73	0xb527e825	-6.255016e-07
74	0xb5a5bcbf	-1.234839e-06
75	0xb4efd575	-4.467253e-07
76	0xb59383a0	-1.0990661e-06
77	0xb58d9756	-1.0549363e-06
78	0x360528f0	1.9842373e-06
79	0x35b66e28	1.3592116e-06
80	0xb5c7473d	-1.4847388e-06
81	0xb5dbbe76	-1.6372203e-06
82	0x356ad942	8.7487945e-07
83	0xb5bbd89b	-1.3995626e-06
84	0xb5eefefa	-1.780659e-06
85	0x3517c8de	5.6544184e-07
86	0x3638de4c	2.754753e-06
87	0xb568092b	-8.6440076e-07
88	0xb604f680	-1.9813015e-06
89	0x3614b916	2.2161453e-06
90	0x357e6887	9.477448e-07
91	0x3533a60d	6.692433e-07
92	0xb4ecee4a	-4.4131804e-07
93	0x3592223e	1.0887813e-06
94	0xb5f08cb3	-1.7922342e-06
95	0xb3bd0487	-8.801822e-08
96	0xb6fa4f72	-7.4598292e-06
97	0xb72d8285	-1.03419925e-05
98	0x36a05f30	4.779453e-06
99	0xb6b01be4	-5.2484556e-06
100	0xb722985a	-9.691425e-06
101	0xb64e2594	-3.0718265e-06
102	0x37241b39	9.7815e-06
103	0xb6128826	-2.1834944e-06
104	0xb74db69c	-1.2261469e-05
105	0x36afb1ec	5.2361193e-06
106	0x36c5cb4c	5.8947244e-06
107	0x36356045	2.7027138e-06
108	0x3657ce70	3.215766e-06
109	0x36998d61	4.576214e-06
110	0xb72c1ca5	-1.0258668e-05
111	0xb62d8bb7	-2.5860334e-06
112	0xb715c9fe	-8.928122e-06
113	0xb75e078d	-1.3233989e-05
114	0x36f294c4	7.2294806e-06
115	0xb6be6d6e	-5.6751805e-06
116	0xb73b83a9	-1.1176723e-05
117	0xb685ee53	-3.9914535e-06
118	0x37661045	1.3712856e-05
119	0xb7161f82	-8.948033e-06
120	0xb73742e8	-1.0923228e-05
121	0x35f44696	1.819996e-06
122	0x370385af	7.839334e-06
123	0x36825606	3.8843164e-06
124	0x3707b8c6	8.089648e-06
125	0x37141fed	8.828921e-06
126	0xb751194b	-1.246326e-05
127	0xb6ff3842	-7.6061415e-06
128	0xb74cbbaa	-1.22030415e-05
129	0xb7aae215	-2.0370857e-05
130	0x372e2db7	1.0381852e-05
131	0xb7104bdb	-8.60073e-06
132	0xb7811b6d	-1.539077e-05
133	0xb671efdd	-3.6051417e-06
134	0x3794075b	1.76464e-05
135	0xb72b584d	-1.0212953e-05
136	0xb7939ca0	-1.75967e-05
137	0x36a1228a	4.802195e-06
138	0x3729b359	1.0114943e-05
139	0x368f3cf6	4.268829e-06
140	0x371c6b5d	9.323322e-06
141	0x37388674	1.0998559e-05
142	0xb7977b66	-1.8058065e-05
143	0xb7458b74	-1.1774584e-05
144	0xb6c85dae	-5.9713702e-06
145	0xb71470b5	-8.847729e-06
146	0x36c8b6a7	5.981728e-06
147	0xb692669e	-4.3630853e-06
148	0xb70c2dbb	-8.355298e-06
149	0xb5d880dd	-1.6130758e-06
150	0x3706de33	8.038757e-06
151	0xb6d2ee59	-6.286235e-06
152	0xb6f45928	-7.282146e-06
153	0x366f5324	3.566217e-06
154	0x36b9d5c5	5.5383157e-06
155	0x360ee682	2.1293822e-06
156	0x36dd9892	6.6040748e-06
157	0x36941465	4.413118e-06
158	0xb7253e6d	-9.849301e-06
159	0xb6dd3607	-6.592603e-06
160	0x367ed3a1	3.7972134e-06
161	0x36bce9f8	5.630074e-06
162	0xb63f0ffc	-2.8470522e-06
163	0x36a214cf	4.8303987e-06
164	0x36a7f6f7	5.0057383e-06
165	0x34f7de55	4.6169103e-07
166	0xb6be70ee	-5.675588e-06
167	0x364403de	2.9208527e-06
168	0x36b1e5c3	5.301759e-06
169	0xb681422e	-3.852204e-06
170	0xb6487b7b	-2.9874197e-06
171	0xb59a5a3e	-1.1500158e-06
172	0xb61239c9	-2.178933e-06
173	0xb62893ea	-2.5120048e-06
174	0x36b48e91	5.381015e-06
175	0x361c2dbe	2.3272437e-06
176	0x373729b6	1.0917362e-05
177	0x37b56764	2.1625026e-05
178	0xb72964ea	-1.0096681e-05
179	0x3721487f	9.613227e-06
180	0x379472ba	1.7696399e-05
181	0x363592c6	2.7056535e-06
182	0xb7879a9c	-1.616525e-05
183	0x3721f8ab	9.654245e-06
184	0x37a443f8	1.9581974e-05
185	0xb681d664	-3.869458e-06
186	0xb7310a2a	-1.0552389e-05
187	0xb6993de9	-4.5669626e-06
188	0xb715c2bc	-8.926432e-06
189	0xb73cc986	-1.1252594e-05
190	0x37a1e909	1.9301211e-05
191	0x3760e61c	1.3405017e-05
192	0x37292632	1.0082078e-05
193	0x378b5541	1.660979e-05
194	0xb7101816	-8.588677e-06
195	0x36f68099	7.346342e-06
196	0x3765819e	1.36796425e-05
197	0x368a3909	4.1193603e-06
198	0xb768b346	-1.3870018e-05
199	0x370b3d6d	8.299347e-06
200	0x3770470c	1.4321657e-05
201	0xb68f5b22	-4.2723414e-06
202	0xb70da47d	-8.442553e-06
203	0xb649b49f	-3.005647e-06
204	0xb7112422	-8.651086e-06
205	0xb7021fce	-7.756009e-06
206	0x37820244	1.5498263e-05
207	0x372d9e9f	1.0348535e-05
208	0x3770d104	1.435378e-05
209	0x37e1754d	2.6876713e-05
210	0xb747acf1	-1.190159e-05
211	0x3726cd2b	9.94214e-06
212	0x37b890cc	2.2001936e-05
213	0x36e726e7	6.8888653e-06
214	0xb7b94ac8	-2.2088541e-05
215	0x3752a439	1.25552115e-05
216	0x37ba327d	2.2196438e-05
217	0xb6a711d0	-4.9790615e-06
218	0xb746001f	-1.1801748e-05
219	0xb69f84b3	-4.7540175e-06
220	0xb76c8ba3	-1.4099208e-05
221	0xb76676c1	-1.3736718e-05
222	0x37c00a61	2.2893017e-05
223	0x3784a234	1.5811158e-05
224	0x36f21f71	7.2158223e-06
225	0x37452332	1.175031e-05
226	0xb6d8e3c7	-6.4638184e-06
227	0x36af206d	5.2191813e-06
228	0x37216c14	9.621512e-06
229	0x35f32578	1.8115816e-06
230	0xb72ced55	-1.0307257e-05
231	0x36dba708	6.5461536e-06
232	0x372c1739	1.0257406e-05
233	0xb669563d	-3.4769903e-06
234	0xb6ccf35e	-6.1080054e-06
235	0xb620ce6d	-2.3962014e-06
236	0xb6cf795d	-6.1832093e-06
237	0xb6beb071	-5.6829817e-06
238	0x373cb58e	1.1247945e-05
239	0x3700decc	7.6812685e-06
240	0x378d5b3a	1.685099e-05
241	0x37d3c42e	2.5244513e-05
242	0xb782e47e	-1.5603608e-05
243	0x3731d370	1.0599251e-05
244	0x37a5824a	1.9730203e-05
245	0x3415bf04	1.3946197e-07
246	0xb7db91b9	-2.6174692e-05
247	0x376cbf40	1.4111225e-05
248	0x37cba874	2.4277928e-05
249	0xb748aef0	-1.196166e-05
250	0xb75be85e	-1.3107519e-05
251	0xb6c5c73d	-5.894252e-06
252	0xb6d8b0c5	-6.4578803e-06
253	0xb787598d	-1.6134954e-05
254	0x37c32a31	2.3265458e-05
255	0x37569e7d	1.2792295e-05

exp_avg_sq f4 [1000, 16]
0	0x2e3725a4	4.1642814e-11
1	0x2f88a254	2.4853597e-10
2	0x2e37135f	4.1626588e-11
3	0x2e5d99e4	5.0386265e-11
4	0x2f13ffd5	1.3460462e-10
5	0x2daf08b6	1.9899065e-11
6	0x2f57b974	1.9620022e-10
7	0x2df7a571	2.815412e-11
8	0x2f4c29c9	1.8568537e-10
9	0x2f5ff62d	2.0369191e-10
10	0x2ec2ac13	8.852665e-11
11	0x2e02dad8	2.975295e-11
12	0x2e806127	5.838024e-11
13	0x2ea46c5c	7.477105e-11
14	0x2ea541b4	7.5150025e-11
15	0x2ddb6fa8	2.4947003e-11
16	0x2f86fb06	2.455282e-10
17	0x307bdc05	9.1625935e-10
18	0x2fbc5d92	3.4263486e-10
19	0x2ee7924c	1.05306514e-10
20	0x301d3168	5.718648e-10
21	0x2e596475	4.942931e-11
22	0x307a1ee0	9.0993346e-10
23	0x2fd448e9	3.861438e-10
24	0x305f6db7	8.128284e-10
25	0x2f8c25cb	2.5492705e-10
26	0x2f9e59ee	2.8803931e-10
27	0x2e125d4a	3.3279414e-11
28	0x2f1c9a1b	1.4242867e-10
29	0x2f804c73	2.3337385e-10
30	0x30451ced	7.170929e-10
31	0x2f3b18bc	1.7016338e-10
32	0x2e846c5f	6.0219156e-11
33	0x2f84853c	2.410533e-10
34	0x2e949801	6.757262e-11
35	0x2e5cb11f	5.0179524e-11
36	0x2f34847b	1.6417971e-10
37	0x2d780f28	1.4100533e-11
38	0x2f92ebe1	2.6724847e-10
39	0x2ecfb592	9.4455235e-11
40	0x2f74dcfc	2.227018e-10
41	0x2f1302b8	1.3370538e-10
42	0x2eadac34	7.8977186e-11
43	0x2d79c2e0	1.4197282e-11
44	0x2d9d2652	1.7865851e-11
45	0x2eadc9b4	7.902959e-11
46	0x2f21a828	1.4702606e-10
47	0x2d54aad8	1.208874e-11
48	0x3008701e	4.963584e-10
49	0x31346ef6	2.6256521e-09
50	0x304b48fd	7.395469e-10
51	0x2fb8460b	3.3519174e-10
52	0x30d20c94	1.5283086e-09
53	0x2ebdcd4f	8.631195e-11
54	0x30dabd61	1.5915412e-09
55	0x306d15b6	8.625095e-10
56	0x30ea3d50	1.7043167e-09
57	0x2fd8e722	3.94544e-10
58	0x302b0735	6.221968e-10
59	0x2edfd84d	1.0179289e-10
60	0x30337a22	6.529338e-10
61	0x301df0fb	5.745872e-10
62	0x3102e555	1.904785e-09
63	0x30851e42	9.685623e-10
64	0x2f7f0555	2.3194009e-10
65	0x3096aca0	1.0962999e-09
66	0x2fddf5dc	4.037436e-10
67	0x2f04f37e	1.2091836e-10
68	0x3032025f	6.475939e-10
69	0x2d9b45f3	1.7652524e-11
70	0x30659b0f	8.3530066e-10
71	0x3003ab9e	4.7901405e-10
72	0x305d4e22	8.0510365e-10
73	0x2ecbe90f	9.272771e-11
74	0x2fae1e8c	3.167212e-10
75	0x2e456f6d	4.489158e-11
76	0x2f87b167	2.468241e-10
77	0x2fa8216d	3.0582772e-10
78	0x307d5ac9	9.216988e-10
79	0x2fdd88d5	4.029689e-10
80	0x2eb9c098	8.4470375e-11
81	0x2fc0358c	3.4962644e-10
82	0x2eae9c60	7.940382e-11
83	0x2ef2af37	1.103601e-10
84	0x2f9a90e5	2.811539e-10
85	0x2e198f8a	3.491566e-11
86	0x2fe55f18	4.1722426e-10
87	0x2e6f903d	5.4470418e-11
88	0x2fc16422	3.5177644e-10
89	0x2f8ac7d0	2.524403e-10
90	0x2ec2f2a3	8.8651995e-11
91	0x2ddfd6e0	2.5447588e-11
92	0x2e07b316	3.0854506e-11
93	0x2f180b94	1.3828433e-10
94	0x2f3df719	1.7277237e-10
95	0x2daef8eb	1.9892052e-11
96	0x2ecc4a0d	9.29e-11
97	0x2fffca82	4.652812e-10
98	0x2eddd832	1.00883205e-10
99	0x2ea3bde9	7.4461166e-11
100	0x2f9f8cfd	2.902211e-10
101	0x2e3841ff	4.1895373e-11
102	0x2fdeb9e6	4.0513654e-10
103	0x2ea28cc4	7.391912e-11
104	0x2fe88bff	4.2300027e-10
105	0x2fafdd04	3.1989356e-10
106	0x2ee51e0f	1.0419054e-10
107	0x2db8a764	2.0992715e-11
108	0x2e0d737b	3.2162255e-11
109	0x2edf1dc1	1.0146151e-10
110	0x2f81a6fd	2.3583616e-10
111	0x2d352355	1.0296504e-11
112	0x2f4b18cc	1.8471552e-10
113	0x305fb4c1	8.1383794e-10
114	0x2f683c91	2.1121795e-10
115	0x2f2998b1	1.5424707e-10
116	0x3011a810	5.2989524e-10
117	0x2e4327c6	4.4373193e-11
118	0x304403ad	7.130961e-10
119	0x2fa08df9	2.9204708e-10
120	0x3060a221	8.1721124e-10
121	0x2ffa2ed1	4.5508e-10
122	0x2fa47d61	2.9920513e-10
123	0x2e9cd9f2	7.1327735e-11
124	0x2e0eb014	3.244345e-11
125	0x2f5dcccd	2.0172593e-10
126	0x30047ad9	4.81959e-10
127	0x2f1a6f1d	1.4045694e-10
128	0x2fc6caee	3.616018e-10
129	0x3101cbaa	1.888774e-09
130	0x30277725	6.092356e-10
131	0x2f5913e4	1.9743102e-10
132	0x3096bc54	1.0967462e-09
133	0x2e38f957	4.2058215e-11
134	0x30c4e831	1.432687e-09
135	0x3055933e	7.769819e-10
136	0x30bc244a	1.3689114e-09
137	0x2f2e580a	1.5856486e-10
138	0x3012ff0d	5.347694e-10
139	0x2e9041a0	6.560019e-11
140	0x2fecd652	4.3080434e-10
141	0x30086cda	4.96312e-10
142	0x30ca7e1e	1.4733279e-09
143	0x30342ac0	6.554437e-10
144	0x3002194b	4.732967e-10
145	0x311618ca	2.1841964e-09
146	0x304408ff	7.131717e-10
147	0x2f7b5bf5	2.2860987e-10
148	0x30b56005	1.3196774e-09
149	0x2e5b5e8c	4.987881e-11
150	0x30d88ada	1.5755532e-09
151	0x30789e07	9.0446445e-10
152	0x30d12e99	1.5219995e-09
153	0x2f135e92	1.340317e-10
154	0x302a7429	6.2010713e-10
155	0x2ea8caaf	7.675759e-11
156	0x301e2c04	5.7542615e-10
157	0x301c0ba9	5.676904e-10
158	0x30faf7ca	1.826032e-09
159	0x30780a99	9.0236935e-10
160	0x2f4a5c45	1.8404574e-10
161	0x305655f4	7.7974893e-10
162	0x2f942a4d	2.69511e-10
163	0x2ed63821	9.741564e-11
164	0x300aaa48	5.044609e-10
165	0x2e770933	5.616947e-11
166	0x30476b86	7.254858e-10
167	0x2f959796	2.721065e-10
168	0x303d7c40	6.893437e-10
169	0x2f88316c	2.4773372e-10
170	0x2f86da31	2.4529492e-10
171	0x2e128199	3.3311662e-11
172	0x2ec77d18	9.0716934e-11
173	0x2f654105	2.0850528e-10
174	0x301baa06	5.663029e-10
175	0x2f1359ac	1.340143e-10
176	0x2f9b5f0c	2.826187e-10
177	0x30baac0d	1.3582181e-09
178	0x3005841a	4.8572846e-10
179	0x2f196375	1.3950603e-10
180	0x305b3f27	7.976148e-10
181	0x2e12512d	3.3268655e-11
182	0x3090933c	1.0519225e-09
183	0x301aeb9d	5.63597e-10
184	0x30866718	9.779084e-10
185	0x2eecb089	1.07633964e-10
186	0x2fcfb577	3.778202e-10
187	0x2e62f344	5.1602514e-11
188	0x2f98b6ee	2.7778618e-10
189	0x2fc64e32	3.607155e-10
190	0x309a8011	1.1241373e-09
191	0x3009214c	4.988763e-10
192	0x301cdf9b	5.707023e-10
193	0x3156bb2a	3.124749e-09
194	0x3084336b	9.618878e-10
195	0x2faf5ddd	3.1899008e-10
196	0x30fbccad	1.8320826e-09
197	0x2ee0b7e5	1.0219007e-10
198	0x31024a6e	1.8959798e-09
199	0x309cec3c	1.1417636e-09
200	0x310f5c76	2.0861797e-09
201	0x2fb577da	3.3008868e-10
202	0x3083a951	9.579627e-10
203	0x2f0a3a23	1.2571681e-10
204	0x306a95ac	8.53414e-10
205	0x304a6cf9	7.364203e-10
206	0x312589a6	2.4088904e-09
207	0x30b2250f	1.2961737e-09
208	0x2f9ddf21	2.8716676e-10
209	0x30d00df4	1.5137958e-09
210	0x2ffd8696	4.611606e-10
211	0x2f12f7b8	1.336663e-10
212	0x30745e13	8.890037e-10
213	0x2e631d80	5.1640026e-11
214	0x308892e8	9.937056e-10
215	0x30117f2a	5.2931404e-10
216	0x30827e29	9.494602e-10
217	0x2e8a5330	6.2902905e-11
218	0x2fcc383b	3.7147338e-10
219	0x2e59da14	4.953378e-11
220	0x2fc62653	3.604322e-10
221	0x2fdf9700	4.0670756e-10
222	0x309f6146	1.1596419e-09
223	0x302f8dc7	6.3866107e-10
224	0x2f0e8fd1	1.2965919e-10
225	0x305573b7	7.765339e-10
226	0x2f824980	2.3699087e-10
227	0x2e9e030c	7.1855494e-11
228	0x2ffe7c11	4.6290485e-10
229	0x2d85f3a8	1.5228555e-11
230	0x301487ae	5.40349e-10
231	0x2fadd2b6	3.1618236e-10
232	0x3012e815	5.34443e-10
233	0x2e39cfc4	4.2248663e-11
234	0x2f6eadd6	2.1707733e-10
235	0x2de5d08b	2.6126898e-11
236	0x2f4c74ff	1.8595257e-10
237	0x2f51a676	1.9067578e-10
238	0x302ba122	6.243842e-10
239	0x2fa6c738	3.0336778e-10
240	0x2fa5fb1c	3.019175e-10
241	0x30c57414	1.4366628e-09
242	0x2feee46a	4.3454246e-10
243	0x2f361173	1.6559003e-10
244	0x306af65a	8.547879e-10
245	0x2e16433c	3.4165767e-11
246	0x30b226c5	1.2962224e-09
247	0x301949fa	5.57662e-10
248	0x30a58f02	1.2045975e-09
249	0x2f8b9e88	2.5396596e-10
250	0x2fe79641	4.2125417e-10
251	0x2e78c8ac	5.6566904e-11
252	0x2f209382	1.460432e-10
253	0x2fd744a7	3.9157053e-10
254	0x3091927f	1.0591775e-09
255	0x2fa0d2b0	2.9253533e-10
